data.pth (torch, 4991 bytes, 6 tensors)

l1.weight f4 [8, 54]
-0.1000399 0.52368253 0.48222736 0.3024203 0.6625761 -0.46732157 0.36970192 0.47231722
0.6181417 0.381113 0.46615517 0.094788775 0.39924136 0.046474855 0.6008156 -0.017609747
0.4405468 -0.4915274 -0.4139101 0.62690747 -0.06779616 0.59414846 0.72971076 0.1544466
0.33709252 0.25984105 -0.48597762 0.76465756 -0.09665797 0.6044671 -0.13604422 0.24246058
-0.13352697 0.6269185 0.5487807 -0.019775055 -0.15492648 0.7811672 0.24662201 0.37983656
-0.17507143 -0.5833863 0.10497943 0.4824621 0.4945919 0.64063406 -0.6807098 -0.15351112
0.13630301 -0.5784445 0.09941505 -0.30904412 0.28926322 0.36618066 -0.06938078 -0.32489243
0.07877575 0.29763457 0.36305094 0.35373515 0.23221098 0.090140596 -0.6948322 0.20208088
0.40502355 -0.25919384 0.39408347 -0.33594444 -0.18581389 -0.24631418 0.3378165 0.40313688
0.3195333 0.9238224 -0.20672204 0.63422745 0.8360682 0.41498178 -0.28180307 0.39446482
0.6779763 -0.28321198 0.17930748 -0.38491216 0.20328021 -0.47726244 -0.037010465 0.05639159
-0.17061199 -0.37264425 0.3795595 -0.6694673 0.20271026 0.26869193 0.16938606 0.6628378
-0.2604096 -0.24535874 -0.19875412 -0.06393202 -0.7540487 -0.18230845 0.44133914 0.7752446
-0.12609543 0.39621976 0.39151746 0.46249244 0.45041704 0.022198731 -0.38185602 0.22144593
0.036968146 0.90524495 -0.23388381 -0.34637758 -0.48988304 -0.29656598 0.40075892 0.25000134
-0.27961674 0.15745504 -0.08409207 0.35227057 0.33648068 0.97248435 -0.20024908 0.5007007
0.18340445 0.4995179 0.5908008 0.64969444 0.080949046 0.25053257 -0.28294843 -0.25865868
-0.2554696 -0.102703504 0.64255935 0.31063655 0.17774604 -0.35768846 -0.3748263 0.17179531
-0.2901996 -0.515042 -0.27368283 -0.31542486 0.5220836 -0.38925114 0.22231834 -0.22848
-0.032982226 -0.2758117 0.5974588 0.03279259 0.07210449 -0.27329245 0.1865839 -0.14215942
-0.29859507 -0.057591215 -0.114127904 -0.010978486 0.27281892 0.37805483 0.37262216 0.94356847
-0.06850091 -0.016241916 -0.1357308 0.05246466 0.49963167 0.3461 0.1898124 0.364841
0.08381947 0.20143509 0.35916358 0.90445167 0.015534639 0.39857036 -0.19939639 0.44437677
0.4563679 0.6861459 0.40155992 0.45955345 -0.22320463 0.042761836 -0.13976647 -0.030100867
0.6203249 0.28606275 -0.094959244 0.27477717 0.14127892 0.3953709 -0.36772114 -0.2230711
0.040655643 -0.048651405 0.58095324 0.2081199 0.31838343 -0.035012987 0.26737675 -0.02736354
-0.7435344 -0.286508 0.3522361 -0.31371155 0.23421387 0.02071588 0.11669137 0.15477638
0.3691729 0.66979825 0.68857396 -0.056384988 -0.6705508 0.33812863 0.39028776 0.23531263
0.17284356 0.13481434 -0.08427739 0.7956045 0.56888056 0.9933974 0.45998207 0.48763302
-0.070997074 0.42842495 -0.17648713 -0.50065815 0.2961134 -0.54067117 -0.54621994 0.14696263
0.7791937 0.011103097 -0.23779681 0.77170235 -0.043222047 0.6753648 0.13559444 1.0850006
0.12043256 0.52732277 0.6027274 0.58592826 0.03246692 0.100863375 0.44651315 0.36197326
00000000: b8e1 ccbd 0f10 063f 81e6 f63e d5d6 9a3e
00000010: 969e 293f c644 efbe 9249 bd3e 90d3 f13e
00000020: 893e 1e3f 3e21 c33e e4ab ee3e 9e20 c23d
00000030: 5d69 cc3e 6b5c 3e3d 0dcf 193f 5142 90bc
00000040: 5a8f e13e 7ba9 fbbe 06ec d3be 027d 203f
00000050: b7d8 8abd 1d1a 183f 53ce 3a3f 4027 1e3e
00000060: 6497 ac3e e309 853e 0fd2 f8be 99c0 433f
00000070: 9df4 c5bd 5bbe 1a3f 2d4f 0bbe 9647 783e
00000080: 4bbb 08be bb7d 203f e47c 0c3f 4cff a1bc
00000090: 0ca5 1ebe 93fa 473f 7b8a 7c3e f079 c23e
000000a0: ed45 33be ce58 15bf 75ff d63d 4605 f73e
000000b0: 263b fd3e 9800 243f ff42 2ebf 0532 1dbe
000000c0: 0493 0b3e f014 14bf 1e9a cb3d 083b 9ebe
000000d0: 4f1a 943e 087c bb3e 8317 8ebd 4d58 a6be
000000e0: 2e55 a13d 8f63 983e d0e1 b93e c61c b53e
000000f0: b7c8 6d3e a29b b83d 86e0 31bf 4aee 4e3e
00000100: 3f5f cf3e 0eb5 84be 4fc5 c93e e900 acbe
00000110: ff45 3ebe c939 7cbe 49f6 ac3e f567 ce3e
00000120: de99 a33e a07f 6c3f f1ae 53be bb5c 223f
00000130: 9108 563f 7e78 d43e 7e48 90be 4bf7 c93e
00000140: db8f 2d3f 2901 91be 619c 373e 3513 c5be
00000150: b028 503e be5b f4be 4998 17bd defa 663d
00000160: e9b4 2ebe 3acb bebe 9f55 c23e 3562 2bbf
00000170: 4793 4f3e fd91 893e 8a73 2d3e bdaf 293f
00000180: 6854 85be 523f 7bbe 3386 4bbe caee 82bd
00000190: 5609 41bf 11af 3abe 34f7 e13e 6e76 463f
000001a0: 291f 01be 51dd ca3e fa74 c83e cfcb ec3e
000001b0: 109d e63e 1dda b53c a282 c3be b9c2 623e
000001c0: e96b 173d 22be 673f 3d7f 6fbe 6758 b1be
000001d0: f3d1 fabe 7fd7 97be 4630 cd3e 2d00 803e
000001e0: ed29 8fbe e53b 213e 7738 acbd cf5c b43e
000001f0: 3247 ac3e bcf4 783f 180e 4dbe ec2d 003f
00000200: 60ce 3b3e cfc0 ff3e b93e 173f 6052 263f
00000210: 9dc8 a53d ce45 803e 9ede 90be e96e 84be
00000220: e9cc 82be 3756 d2bd c57e 243f c10b 9f3e
00000230: 0f03 363e f122 b7be 3ce9 bfbe 1ceb 2f3e
00000240: 0b95 94be cbd9 03bf 2820 8cbe 5e7f a1be
00000250: 45a7 053f ed4b c7be 6ba7 633e a9f6 69be
00000260: 5f18 07bd 3137 8dbe 0ff3 183f 8651 063d
00000270: 85ab 933d fdec 8bbe da0f 3f3e 3d92 11be
00000280: 74e1 98be c4e4 6bbd e4bb e9bd 1cdf 33bc
00000290: ecae 8b3e 6790 c13e 55c8 be3e b48d 713f
000002a0: 354a 8cbd c40d 85bc 04fd 0abe 2fe5 563d
000002b0: b9cf ff3e 0534 b13e 2f5e 423e 71cc ba3e
000002c0: 8ba9 ab3d 0045 4e3e 4ae4 b73e 258a 673f
000002d0: 0085 7e3c 6a11 cc3e 912e 4cbe 5a85 e33e
000002e0: 0ea9 e93e 42a7 2f3f 4399 cd3e 974a eb3e
000002f0: c18f 64be 0927 2f3d f11e 0fbe 1896 f6bc
00000300: 9dcd 1e3f d176 923e fe79 c2bd 98af 8c3e
00000310: 6cab 103e 0e6e ca3e f245 bcbe c06c 64be
00000320: 8886 263d b246 47bd 5ab9 143f 621d 553e
00000330: 2703 a33e c769 0fbd 9be5 883e 8129 e0bc
00000340: 4558 3ebf 2db1 92be 4a58 b43e cd9e a0be
00000350: c3d5 6f3e 59b4 a93c e3fb ee3d b37d 1e3e
00000360: 3b04 bd3e e677 2b3f 6246 303f f2f3 66bd
00000370: 38a9 2bbf 321f ad3e ccd3 c73e cbf5 703e
00000380: e7fd 303e c50c 0a3e a099 acbd bdac 4b3f
00000390: 28a2 113f 4b4f 7e3f c582 eb3e 09ab f93e
000003a0: ea66 91bd 845a db3e 0bb9 34be 222b 00bf
000003b0: 2d9c 973e 6d69 0abf 12d5 0bbf 5f7d 163e
000003c0: 3d79 473f c4e9 353c 0281 73be 498e 453f
000003d0: 9a09 31bd b5e4 2c3f 45d9 0a3e 4de1 8a3f
000003e0: 59a5 f63d a0fe 063f 584c 1a3f 65ff 153f
000003f0: 08fc 043d 7591 ce3d 5f9d e43e 8f54 b93e

l1.bias f4 [8]
0.69232666 1.1861154 1.1298822 0.78756934 0.7938992 1.0180929 0.9476666 0.92890686
00000000: 523c 313f a1d2 973f fb9f 903f 259e 493f
00000010: fa3c 4b3f de50 823f 479a 723f d7cc 6d3f

l2.weight f4 [8, 8]
-0.93019706 0.46319234 0.57740074 0.6127544 1.269254 2.2611768 0.57153887 0.215405
1.3986075 -0.3870985 -0.81892323 0.031052724 1.8704364 0.21186326 1.33923 0.66990745
-0.4937862 0.78843194 0.809775 -0.78901744 0.5996803 1.5326107 1.8765272 -0.5284005
0.7395327 -0.14527714 1.8447331 0.5487366 0.43383858 1.1793133 0.04861469 -0.56244177
-0.45949617 0.5399353 1.3065625 0.5564768 -0.10227961 1.618302 -0.08138429 0.38202876
0.55063283 1.5734488 -0.2745405 0.5793111 -0.58109784 -0.96640354 0.4161906 1.8277607
0.7623374 1.9134429 0.026392104 1.2249378 -0.74873245 -0.019258337 0.07620037 0.97988003
0.95057917 0.7736444 0.9167655 2.219287 0.77965426 0.10556169 -1.0784762 1.593068
00000000: 6521 6ebf 8c27 ed3e 89d0 133f 79dd 1c3f
00000010: ea76 a23f 1fb7 1040 5f50 123f 2193 5c3e
00000020: 9205 b33f c631 c6be f4a4 51bf 4862 fe3c
00000030: 766a ef3f aff2 583e e36b ab3f 0e7f 2b3f
00000040: 8bd1 fcbe add6 493f 6a4d 4f3f 0cfd 49bf
00000050: a684 193f 962c c43f 0b32 f03f 4145 07bf
00000060: 0452 3d3f 88c3 14be 3720 ec3f 007a 0c3f
00000070: 1720 de3e bdf3 963f 3220 473d 2ffc 0fbf
00000080: 1543 ebbe 3339 0a3f 713d a73f 4375 0e3f
00000090: f977 d1bd 8524 cf3f ceac a6bd 4699 c33e
000000a0: 46f6 0c3f c566 c93f 9390 8cbe bb4d 143f
000000b0: d4c2 14bf 3966 77bf ef16 d53e 10f4 e93f
000000c0: 8b28 433f b2eb f43f 4134 d83c c3ca 9c3f
000000d0: eeac 3fbf a9c3 9dbc f10e 9c3d 6bd9 7a3f
000000e0: 2859 733f 8f0d 463f 25b1 6a3f cc08 0e40
000000f0: 6c97 473f ba30 d83d 820b 8abf a7e9 cb3f

l2.bias f4 [8]
0.26714477 0.31777772 0.7380317 0.75288033 0.5662353 -0.001422162 0.60668075 0.2939396
00000000: 33c7 883e c3b3 a23e a5ef 3c3f c4bc 403f
00000010: ccf4 103f d767 baba 6e4f 1b3f 407f 963e

l3.weight f4 [7, 8]
-0.050836165 -0.1862739 -1.7244095 -0.1289688 0.09847962 -1.0406939 -1.5314239 0.3336322
-1.0627314 1.1137632 0.24699262 0.31005394 -1.2140837 -1.9284222 -0.77927625 -1.7600545
0.34964833 -2.881455 -0.190345 0.37738276 0.52412945 -2.424568 -0.16977815 -0.025154103
-2.1171741 -1.7680088 -1.1687385 0.15595503 0.0031451788 0.34928775 0.55248314 0.5011656
0.19844475 -1.4909196 0.36544096 -1.148224 -0.2987181 0.42066255 0.29353973 -1.7811648
-2.4943879 0.7505171 -0.5753987 -0.57957083 -1.2106173 0.11016375 0.100599326 -0.33769003
0.192783 -1.2396123 1.038437 0.38273874 0.56617844 -1.3703129 -1.5962591 -2.3802073
00000000: 9539 50bd 96be 3ebe 73b9 dcbf 6610 04be
00000010: afaf c93d 7535 85bf b305 c4bf d7d1 aa3e
00000020: 9507 88bf cb8f 8e3f a2eb 7c3e 64bf 9e3e
00000030: 1867 9bbf 8ad6 f6bf a67e 47bf 7749 e1bf
00000040: 1b05 b33e c269 38c0 cde9 42be 5038 c13e
00000050: 592d 063f 1f2c 1bc0 53da 2dbe fa0f cebc
00000060: c87f 07c0 1d4e e2bf 3999 95bf adb2 1f3e
00000070: 581f 4e3b d8d5 b23e 896f 0d3f 644c 003f
00000080: 1a35 4b3e 74d6 bebf 141b bb3e 01f9 92bf
00000090: 94f1 98be 1561 d73e d74a 963e 35fd e3bf
000000a0: 0da4 1fc0 e321 403f 544d 13bf c15e 14bf
000000b0: 82f5 9abf 889d e13d 0507 ce3d b5e5 acbe
000000c0: e868 453e 9eab 9ebf 81eb 843f 55f6 c33e
000000d0: 12f1 103f 6a66 afbf 3852 ccbf 5155 18c0

l3.bias f4 [7]
-0.1944636 0.22992992 0.15351677 0.19584382 0.12848727 0.08383913 0.14269738
00000000: 7721 47be c072 6b3e 8033 1d3e 488b 483e
00000010: 2b92 033e dab3 ab3d 431f 123e
